static/pth/bird_sound_classification_model.pth (torch, 825401 bytes, 10 tensors)

lstm.weight_ih_l0 f4 [512, 13]
000000 3f 0c a5 3d 41 a8 3a 3d 37 13 91 bd cd a8 e7 bc
       0.080589764 0.045570616 -0.07083743 -0.028278733
000010 04 e3 24 bd 16 29 5a bb 5e d6 a9 3d 69 fb 12 bc
       -0.04025556 -0.003328865 0.082928404 -0.008971074
000020 d7 26 90 3d 23 b2 64 bd 8c ea 2a 3d 4e 5b 3c 3d
       0.07038658 -0.055833947 0.041727588 0.045985512
000030 49 87 96 3d 31 49 a9 3d 48 8e 1c 3c a0 b4 af 3c
       0.07350022 0.08265913 0.009555407 0.021448433
000040 28 7d 7a bc 50 6a d3 bc 49 c4 ac 3d d5 66 87 3d
       -0.015288629 -0.02580753 0.08435876 0.066114105
000050 58 7d 00 3d fd 3d 0b 39 9a 2d 75 3d 76 4b 89 bd
       0.031369537 0.00013279165 0.059857942 -0.06703846
000060 3a 36 29 3d 55 eb 44 bd a3 3d eb bc 5e 92 7d 3d
       0.04131148 -0.048075993 -0.028715914 0.061907165
000070 70 93 a6 3c d8 0d 95 bd 97 2d 9e bd 95 eb 8b 3d
       0.020333976 -0.07278031 -0.07723539 0.06832043
000080 d0 21 b7 3c 2a 9d 39 bd f0 2d 50 bd 31 f9 3e bc
       0.02235499 -0.0453159 -0.05082506 -0.011656092
000090 43 e8 a0 bd 5f 17 28 3d 30 34 f3 3c df 66 bd bc
       -0.078568004 0.041037913 0.02968797 -0.023120342
0000a0 29 0b 26 39 06 7c ac 3d 4b 33 a0 3c f3 35 be 3c
       0.00015835151 0.08422093 0.019555708 0.023219084
0000b0 24 51 08 bd 59 f6 82 3d 62 70 5c bd fa 85 87 3d
       -0.033280507 0.06394643 -0.053818114 0.06617351
0000c0 e8 9d e1 bc 3a 67 08 3d e0 ec c9 bd f0 02 5e bc
       -0.027541116 0.03330157 -0.098596334 -0.013550505
0000d0 e7 a4 82 3d e3 40 03 bd bc 00 b1 3c 4f 85 97 bd
       0.06379109 -0.032044303 0.021606795 -0.073984735
0000e0 78 f1 5c 3d c7 c7 94 3d 5b f0 17 bd fa bc 15 bd
       0.05394122 0.07264667 -0.037094455 -0.036557175
0000f0 a0 90 79 3c 1f 5d 93 3b f2 cf bf 3c e0 69 83 bd
       0.015232235 0.004497185 0.023414586 -0.064166784
000100 0d e7 5c bd 56 f8 dc bc 44 aa b3 3b a8 02 0f 3d
       -0.053931285 -0.026973885 0.0054829437 0.034914643
000110 3d e9 59 bd e3 2e e5 3c 4a 19 06 3d ee 05 2e bd
       -0.05320095 0.027976459 0.03273896 -0.042486124
000120 5b f9 d7 bc 9c a4 38 3d d3 bd 1f 3c 0b 2b 5c bc
       -0.02636402 0.04507886 0.009749847 -0.013437997
000130 22 df 8c 3d 1a 9e 1c bd 64 4c 3d bc 61 1b 48 bc
       0.06878497 -0.038236715 -0.0115538575 -0.012213559
000140 fc 3a 4a bd 11 dd e5 3c d7 53 9b bc e1 ac 00 bd
       -0.049372658 0.028059514 -0.018960876 -0.03141487
000150 59 bc bc bd 7b 6d 9d bd 54 28 af bd a2 0a 59 3d
       -0.09215612 -0.07686897 -0.08552614 0.052988656
000160 83 77 63 3d ad 4b 08 bd bf ff d9 bc 89 ac a0 3b
       0.055533897 -0.033275295 -0.026611207 0.0049033803
000170 0d 6a 7f bd e5 0b 72 bd a1 33 17 3c 36 eb 83 bd
       -0.062356997 -0.059093375 0.009228618 -0.06441347
000180 16 56 c0 bb 8d 39 63 bd 1c d8 06 bd 20 26 3e 3d
       -0.0058696372 -0.055474807 -0.03292094 0.046423078
000190 0e 7f 97 3d 35 0c 59 bd 94 53 8e 3d 0e fc 15 bd
       0.07397281 -0.052990157 0.06949535 -0.03661733
0001a0 9e 3a 0c 3d cc ac a9 3d 29 bc 9a bd 87 0a 79 bd
       0.03423559 0.082849115 -0.0755542 -0.060801055
0001b0 4d 58 54 3b 26 fa f5 3c 78 ec 44 bd 16 e8 77 3d
       0.0032401264 0.030026507 -0.048077077 0.06052407
0001c0 11 2a 9f 3d 6b f9 a2 3c 5c 65 d5 bd cd ba 87 3d
       0.077716954 0.019894322 -0.104197234 0.06627426
0001d0 99 31 27 3d 76 52 fe bc 7d 5e 12 3d cc 95 85 3c
       0.040818784 -0.03104518 0.035734642 0.01630678
0001e0 e1 bf 84 3d 3d aa 17 bd b1 07 8d 3d c3 cf 09 bd
       0.064819105 -0.037027586 0.06886233 -0.033645403
0001f0 e1 28 6e 3d d7 95 86 bd 2a cd a2 3d fc 01 eb bc
       0.058144454 -0.065715484 0.07949288 -0.02868747
000200 26 58 c6 3c 42 2b 12 bd cc 21 90 bd 73 ea 88 bd
       0.024211954 -0.035685785 -0.07037696 -0.06685343
000210 f4 cd b8 bc 60 f0 f4 bc 88 b0 1f 3c 12 43 8c bd
       -0.022559144 -0.029899776 0.009746678 -0.0684873
000220 32 d1 50 3d 2d 85 07 bd c0 a5 7a 3c 0e a8 41 3d
       0.050980754 -0.03308599 0.015298307 0.04727941
000230 2e d3 8a bd 81 19 aa 3d 4c be 3c bd 0f 01 71 3d
       -0.067785606 0.08305646 -0.04607992 0.0588389
000240 73 5c 4f bd 25 c6 03 bb 35 36 65 3d 53 74 90 3c
       -0.050625276 -0.0020107117 0.0559599 0.017633593
000250 e1 23 80 3d c2 37 0b bd 7e 50 0c bd 1a cd 0a 3c
       0.06256843 -0.03398872 -0.03425645 0.008471752
000260 7b 5c 9e 3d 0d 0e fb 3a 96 1b a6 3b 5c 62 2e 3d
       0.07732483 0.0019153968 0.0050692065 0.04257427
000270 9b 54 ac 3d ca cb 28 3d 7d 7b 81 3c 2f 0e a5 3d
       0.08414575 0.041209973 0.015805954 0.08059346
000280 34 7c 2b bd 76 5e 06 3d e6 f2 9d bd 66 96 82 bd
       -0.041866496 0.03280493 -0.07712345 -0.063763425
000290 5d 14 f2 3c 00 87 42 bd 8e 0d 23 3d 4b d9 39 bd
       0.029550726 -0.047492027 0.03980785 -0.045373242
0002a0 34 c2 5f bd e6 1f 0c 3d 9e 1f 15 bd 04 c0 44 bd
       -0.054628566 0.03421011 -0.036407106 -0.048034683
0002b0 45 35 d0 bc 08 b9 89 bb 6d 89 17 bd 33 86 7a bd
       -0.025416026 -0.0042029656 -0.036996294 -0.06116314
0002c0 4f 2c 51 3d ab 95 8b bd 23 de 9a bc bd 80 ba 3d
       0.051067647 -0.06815656 -0.018904751 0.09106586
0002d0 6b b8 be bd 37 c3 9e 3c e3 df 90 bd f6 71 36 bd
       -0.09312519 0.019380195 -0.07073953 -0.044542275
0002e0 8d f7 6c bd 8d 35 b3 bd d5 4a 22 bd c0 b8 b7 bb
       -0.05785327 -0.087504484 -0.039622147 -0.0056067407
0002f0 ec 3c 92 bd 5c 82 a7 bd 66 41 26 bd af a2 8b bd
       -0.07140526 -0.08179161 -0.040589713 -0.06818139
000300 13 9a b2 bd a0 4c d9 bb d0 4d dc 3c 75 17 8d 3d
       -0.087207936 -0.006631449 0.026892573 0.0688924
000310 d3 30 04 3d 41 58 42 3d f0 4a 8d bc 06 67 32 3d
       0.032273125 0.047447447 -0.017247647 0.043555282
000320 17 dd a7 3b 55 98 d3 bc 02 2e 8f bd f6 46 9a 3b
       0.0051227915 -0.025829474 -0.06991197 0.0047081662
000330 67 48 ae bd aa dc 8e bd 59 26 25 3c 01 c5 13 bd
       -0.085099034 -0.06975682 0.010079944 -0.03607655
000340 72 32 b3 bd eb 0b 87 3d c7 dd 9a 3d 0e 5c 09 3d
       -0.08749856 0.0659407 0.07561832 0.033535056
000350 4c 7b e5 3c d8 8e ff bc f4 0c 81 3c 8c e0 a6 bd
       0.028012894 -0.031196043 0.015753247 -0.08148298
000360 8a d8 62 3d a5 2e 96 3d e0 f4 27 3c 69 2a b1 3d
       0.05538229 0.073331155 0.010251254 0.08650667
000370 4e 2e 79 3d e0 c9 ce bc 47 1f 4e bd e9 52 c9 bb
       0.060835175 -0.025242746 -0.050322797 -0.006143917
000380 41 3e c5 bd eb f0 72 bb 6d 7c 4f 3d f4 03 2a bd
       -0.096310146 -0.0037069868 0.05065577 -0.041507676
000390 28 b8 9c 3c 21 bc 53 3c eb c9 a5 3c 79 19 77 bd
       0.019130781 0.012923271 0.020237884 -0.060327027
0003a0 91 08 d1 ba 95 76 03 3d 34 57 28 3d af 41 df 3d
       -0.0015947988 0.03209551 0.04109879 0.109012
0003b0 ac 71 19 bd 57 ea 45 bc 49 1f 79 3c 59 7f 47 3c
       -0.03746192 -0.012079797 0.015205213 0.012176358
0003c0 69 c1 ab bd 87 52 63 3d 37 13 44 3d 85 ca d2 3c
       -0.083864994 0.055498626 0.047869887 0.025731334
0003d0 9c 11 b4 bd 4e d7 aa bd 9b d5 83 bd bf 09 91 3d
       -0.08792421 -0.08341847 -0.064372264 0.07081937
0003e0 aa cc a1 bc 37 5b 6f bc 4b 7f c7 3c 9b 1b 2e bc
       -0.019750912 -0.01460915 0.02435269 -0.010626699
0003f0 92 5f 93 3c 3a c0 00 3d 07 4e 6c 3d 96 94 b6 3c
       0.017989907 0.03143332 0.0576916 0.022287648

lstm.weight_hh_l0 f4 [512, 128]
000000 15 ce 97 bd 91 fe 8c bd 86 f2 82 3d 0e 08 72 3d
       -0.07412354 -0.06884492 0.06393914 0.059089713
000010 98 b4 87 3d 2c 85 5f 3d 36 74 b2 bb 52 99 86 bc
       0.066262424 0.054570362 -0.0054459823 -0.01643053
000020 52 0c ac bd 9a 6d 69 3c 30 8d c6 bd 58 32 27 3d
       -0.084007874 0.014247322 -0.09694898 0.040819496
000030 3e c6 03 bd 97 2e 8d 3d 8e 8f 92 bd 6f 5a 96 bd
       -0.03217148 0.06893652 -0.07156287 -0.073414676
000040 f7 1a 27 3d 72 61 46 bd 98 66 c4 bd 0f f9 5e 3d
       0.0407972 -0.048432775 -0.09589881 0.05443674
000050 3c 59 34 3d b4 35 48 39 2d 4d c1 bc b9 66 47 3d
       0.044030413 0.00019093492 -0.02359637 0.04868195
000060 be 08 b8 bc a0 74 c1 3b ab 77 96 3b b6 cf d1 3c
       -0.022465106 0.0059037954 0.0045919023 0.02561174
000070 0e 52 83 bd 99 37 06 bb 71 f7 ca 3c ec 91 c0 3d
       -0.06412135 -0.0020479916 0.024776192 0.094028324
000080 22 bf da bc 46 59 8d bd 97 af 55 bd 06 66 26 bc
       -0.026702467 -0.06901793 -0.05216941 -0.01015616
000090 c7 57 99 bd 95 ed 8a 3c 65 fd 0c bd 08 bf 4c 3d
       -0.07487445 0.016958991 -0.034421343 0.04998687
0000a0 73 26 8f bc fe 8e 82 3d 23 ae 96 bd 56 e9 04 bd
       -0.017474389 0.0637493 -0.07357433 -0.03244909
0000b0 0a 38 b7 3d c1 a7 95 3d 34 71 b4 bd 03 f6 9f bd
       0.089462355 0.07307387 -0.08810654 -0.07810595
0000c0 b8 69 cc bd e5 35 f3 3c f4 26 67 3d 39 58 59 3d
       -0.09981102 0.029688785 0.056433633 0.05306265
0000d0 4d 4f 78 bc 3b 93 7a 3d 13 78 88 3d d5 39 41 bc
       -0.0151556255 0.061175566 0.06663527 -0.011793573
0000e0 b7 7d 88 3d e1 4d c7 3c aa bc 82 bd 4f 3e 61 bd
       0.06664603 0.024329128 -0.06383641 -0.054991063
0000f0 ad e3 ca bc 38 3f 34 3c de 18 c3 3c 5f 82 e0 bd
       -0.024766767 0.011001401 0.023815569 -0.10962366
000100 f4 5a 2c 3d 87 eb 4e 3d 61 8a 98 bd ec 35 32 bd
       0.042078927 0.050517585 -0.07448269 -0.043508455
000110 ed 92 cf 3c 88 8f 1e 3d e6 9d 7a 3c 1d 67 75 3d
       0.025338614 0.0387111 0.015296435 0.05991279
000120 a5 ef c3 3d 6b b8 af bd 11 6d c2 bd 25 f1 92 ba
       0.09567193 -0.08580097 -0.09493459 -0.0011210783
000130 d3 9f 51 3d f2 d1 a1 3d 6d 93 34 bd 8a 4c 41 3d
       0.05117781 0.07901372 -0.04408591 0.047192134
000140 9c 28 79 bd 51 50 0b bd dd 7e 46 3d 61 83 2f 3d
       -0.060829744 -0.034012143 0.04846083 0.042849902
000150 d7 91 41 bd 34 ef b2 3d e8 b2 81 3d 55 34 92 3d
       -0.047258224 0.087370306 0.06332952 0.07138888
000160 08 db 25 bd 1f f3 08 bd 55 39 8d bd bb 36 b5 3c
       -0.040492088 -0.033434983 -0.06895701 0.022120824
000170 bf 73 1b bd 75 21 67 3d 51 e7 68 bd 64 7a 84 bc
       -0.03795218 0.05642839 -0.056861226 -0.016171642
000180 75 01 b4 bd f7 1c 30 bd 48 f0 f3 3b b2 a6 57 3d
       -0.087893404 -0.042996373 0.0074444152 0.052649207
000190 5d 96 59 3d 8b ce f2 3c 36 5c ce bd 78 7e 68 3c
       0.053121913 0.029639503 -0.100761816 0.014190309
0001a0 f3 86 7e bc 63 fb 14 3c 0c 93 c8 3d fd 65 66 bc
       -0.015535104 0.009093138 0.09793672 -0.014062402
0001b0 30 85 bb bd 74 8a 2c bd 42 aa cc bd ca 4c 8c 3c
       -0.09156263 -0.042124227 -0.099934116 0.01712646
0001c0 34 92 6f 3d b6 7b 89 bd 22 66 b0 bd c7 8c 49 bd
       0.05848904 -0.06713049 -0.0861323 -0.04920652
0001d0 72 4d f1 ba 69 d8 6d 3d 61 81 30 3d 48 bc 74 3c
       -0.0018409921 0.058067713 0.043092135 0.014937468
0001e0 3b 82 e3 bd 8b 81 18 bd 1d 17 72 bd e2 c3 6d 3d
       -0.11108824 -0.037232917 -0.059104074 0.058048137
0001f0 35 62 26 bd 27 05 46 bd a6 97 cc bc 16 ec a4 bd
       -0.040621 -0.048344757 -0.024974655 -0.08052842
000200 2a 9a 48 3d 71 8c 77 3d dc ec ca ba 90 73 5d 3c
       0.048975147 0.06043667 -0.0015481967 0.013516322
000210 a8 ec 0d bd b1 87 82 3d 7e 80 85 bb 14 80 95 3d
       -0.03464952 0.06373537 -0.0040741554 0.072998196
000220 36 de 90 3c bc c6 1f 3b 3c 2a 53 bd 6f e7 93 3d
       0.017684083 0.002437993 -0.05155395 0.07221877
000230 ec 16 b1 3d b2 dc 8e bd e1 ad 0e bd d9 9d 4f bc
       0.0864695 -0.06975688 -0.034833793 -0.012671911
000240 02 f6 2e 3b 20 b3 65 bd 1c da b0 bb 39 67 9a 3d
       0.0026696925 -0.05607903 -0.0053970944 0.075392194
000250 83 01 6c 3c 78 6a ca 3d 20 5a 68 bd b3 85 6e 3d
       0.014404657 0.098835886 -0.056726575 0.058232974
000260 34 ab 4f 3d 6e ec f8 bc c0 05 fc bc 5f 8d c0 3c
       0.05070038 -0.030386176 -0.03076446 0.023504911
000270 57 10 1e 3d 2f 22 c4 bc ef 58 e1 bc ec e3 76 bd
       0.0385898 -0.023942081 -0.027508227 -0.060275957
000280 70 89 3c bd 84 bd 18 bd 64 d1 b3 3c ac d4 36 bd
       -0.046029508 -0.03729011 0.021950431 -0.044636413
000290 d4 c6 d3 bc e9 d6 0e b9 1b a0 07 bb 36 77 08 3d
       -0.025851645 -0.00013622236 -0.0020694796 0.033316813
0002a0 8b 69 79 bb 8a 17 d7 3c 56 83 a4 bd eb 94 93 bd
       -0.0038057293 0.026256341 -0.08032863 -0.07206138
0002b0 53 aa 8b 3c d0 7e 0b 3d e6 e9 60 ba 6a ab 58 3d
       0.01704899 0.034056485 -0.00085797755 0.05289785
0002c0 08 ff 88 ba 33 29 09 bd 7d ff ea bc d0 a9 a5 3d
       -0.0010451982 -0.033486556 -0.02868628 0.0808903
0002d0 60 aa f7 3c 84 3b 49 3c 5d bf 03 3d c3 a0 a0 bd
       0.030232608 0.012282256 0.03216492 -0.07843163
0002e0 6b 38 95 bc 32 08 a2 3d 31 c5 f1 3c 8a 02 88 bb
       -0.018215379 0.079117194 0.029512974 -0.0041506933
0002f0 23 f8 2a 3d dc 85 bc 3d 43 34 e7 bc 46 15 a1 bc
       0.041740548 0.09205219 -0.028223163 -0.019663464
000300 69 6c 0f 3d cf 3a 98 3c e2 68 24 bd 3a 2f 66 bd
       0.035015497 0.01858273 -0.040139087 -0.056197383
000310 8e 26 a8 bd 9b 89 85 3d 64 b4 cb 3c 38 b9 dc bc
       -0.08210479 0.06520387 0.02486629 -0.026943788
000320 3f 9c d1 3c ff c0 02 bd a7 23 89 3d 71 0a 7f 3d
       0.0255872 -0.031922337 0.06696253 0.062265817
000330 38 38 d6 3c 18 0b 36 bd b2 3f 0d 3d 8e 9a 7f 3d
       0.026149854 -0.044444174 0.034484573 0.062403254
000340 fd 00 53 bb 37 df 80 bd b6 4e 71 bd f6 42 31 3c
       -0.0032196634 -0.06292575 -0.058912955 0.010819187
000350 42 31 a5 3d ce 11 2b 3b 36 0e 6d bd e9 4e d8 bc
       0.08066036 0.0026103142 -0.05787488 -0.026404815
000360 e3 ca fc 3c 83 90 2b 3d 6b bf 4e 3d 73 c1 b6 bc
       0.030858463 0.041885864 0.05047552 -0.02230904
000370 28 31 b7 3d 3c 6f 82 3d d1 be 80 bc 44 8b 8d 3d
       0.08944923 0.063688725 -0.015715988 0.069113284
000380 bb 9c 98 bc 2f d9 76 3d 45 fe a5 3c 4a f9 2a bd
       -0.018629422 0.060265716 0.020262847 -0.041741647
000390 6f 30 7e 3d 1e 67 43 3d d1 03 77 bc 58 fd b3 bd
       0.06205791 0.047705762 -0.0150765935 -0.08788556
0003a0 14 10 f2 3c d7 7b aa bd c9 c5 ab 3d dc 4f de 3c
       0.029548682 -0.08324402 0.08387334 0.02713769
0003b0 ec e0 c9 bd 11 2b da bb 1e ed 47 3d 44 7a c9 bd
       -0.098573536 -0.006657966 0.048810117 -0.098377734
0003c0 26 1a 27 3d cc fb b1 bc 60 f9 82 bc 2d 7b 22 bd
       0.04079642 -0.021726511 -0.015988052 -0.03966825
0003d0 4d 68 60 bc 3b 3c 7b 3d 94 1c c7 3d 1a 3f a7 bc
       -0.013696742 0.061336737 0.09722248 -0.020415831
0003e0 5a 1d 2d 3d 1c 3d fb bc 40 ec de 3d ec 61 6b bb
       0.04226432 -0.030668788 0.10884905 -0.003591652
0003f0 dc 02 bf 3d ec fb 8e 3d b4 4e 82 3b 7f 2a 75 3d
       0.09326717 0.06981644 0.0039766673 0.05985498

lstm.bias_ih_l0 f4 [512]
000000 2c ed 68 3c b4 3c c1 ba fa 42 80 3d d2 3a 28 bd
       0.014216702 -0.0014742822 0.06262775 -0.04107172
000010 21 6c d3 3d cf 04 9d 3d e7 4d eb bc ad c7 b1 3d
       0.10323358 0.07666933 -0.02872367 0.08680663
000020 0b ff 3f 3d bb b8 92 3c 0e 80 46 3d fd 18 fe 3c
       0.046874087 0.017910352 0.048461966 0.031017775
000030 26 b9 7a 3d ec 20 3b 3d 74 04 6c 3d 3c 63 80 3d
       0.061211728 0.045685694 0.057621434 0.062689275
000040 c2 6a 44 3d f6 4f 89 3d 7c ef 13 bc 4d 5d 24 bd
       0.047953375 0.067047045 -0.0090292655 -0.04012804
000050 0d 71 30 3c c2 75 92 bd e0 47 dc 3d ac ab 0e 3c
       0.010769141 -0.07151367 0.107558966 0.008707922
000060 03 e2 8d 3d 48 ba 4b bd 4c e7 04 bd 31 5f 15 3b
       0.06927874 -0.0497382 -0.032447144 0.0022792334
000070 5b 0f ad bc 71 53 ec bc 48 37 6b bc 40 fc a8 3c
       -0.021125486 -0.028848382 -0.014356442 0.020628095
000080 8c c9 43 bd bd 8c 0f 3d e4 63 bd 3d 28 0d 05 bd
       -0.047799632 0.035046328 0.09247568 -0.03248325
000090 8e bf 54 bc 4c 04 be 3d 9e 11 88 3a 23 8a a6 3d
       -0.012985123 0.09278163 0.0010381227 0.08131816
0000a0 f9 4d 10 3d c6 97 8b 3b 17 94 28 3d 5c 6e 54 bc
       0.03523061 0.004260036 0.041156854 -0.012965765
0000b0 e0 7f 9e 3d a1 e3 b0 bc 48 b4 4b bd f1 ba a3 3a
       0.07739234 -0.021592917 -0.049732476 0.0012491626
0000c0 da 3a 1a 3d eb 94 5c 3b d4 b9 00 bd b7 aa 2a bd
       0.03765378 0.0033658098 -0.03142722 -0.041666713
0000d0 f6 27 a8 bc 1d 12 16 bd ff 9a ac 3d eb 2d 33 3d
       -0.020526867 -0.036638368 0.08428001 0.043744963
0000e0 90 2f 9c 3d 5a fa 4b bd bd d4 35 3d bc 78 8b 3c
       0.07626259 -0.0497993 0.044392336 0.017025344
0000f0 ec 0c 48 bd 38 ff cc bd 5a be 1e bd db ae 3b 3d
       -0.04884045 -0.100096166 -0.038755752 0.045821052
000100 73 6e 94 bd 94 3b 68 bd 29 57 69 bd 4d 4f fc bc
       -0.07247629 -0.056697443 -0.056967888 -0.030799532
000110 c9 05 e3 bc 53 da 16 bd 8f c0 b0 bc 6d 11 7e 3d
       -0.02771272 -0.036829304 -0.021576194 0.062028337
000120 5e b3 61 bc b3 b6 13 bd ab 72 aa bd 4f 94 17 bc
       -0.013775675 -0.036062907 -0.083226524 -0.009251668
000130 39 06 76 3c d4 a9 66 bd 35 49 78 bd ae a9 56 bd
       0.015016132 -0.056314304 -0.06061669 -0.052407913
000140 b4 8b 53 bd 29 1b e0 3c 11 22 c3 3d 7e 43 63 3d
       -0.051646903 0.027356701 0.09527982 0.055484287
000150 6e a1 31 bd 04 fe 84 3d 49 d1 fb 3c d1 f0 84 3c
       -0.043366842 0.06493762 0.030739443 0.016228111
000160 72 17 80 bd ae 28 38 bd ca fd 27 3b d7 44 cc 3d
       -0.06254472 -0.04496067 0.0025633448 0.09974068
000170 7e e9 3e bd 22 25 ad bd 3c ca 81 bb b6 ab aa bc
       -0.046609394 -0.08454348 -0.003960876 -0.020833831
000180 d5 e0 9a bc 89 f2 d5 3d d3 ae 88 3d 6c c9 2c 3d
       -0.018906036 0.104466505 0.0667397 0.04218428
000190 3c c2 7e 3d 2b 7f 38 bd bb 37 89 3d 3b de aa bd
       0.062196955 -0.04504315 0.06700083 -0.08343168
0001a0 2d ec 61 3d bc ab 3c 3d 79 25 4c 3d 34 5f 9a 3d
       0.055156875 0.046062216 0.049840424 0.0753769
0001b0 96 af aa 3c 6d 40 b1 3d 83 a6 7b bc 0b 4b dd 3d
       0.020835679 0.08654866 -0.015359524 0.10805329
0001c0 3f 9b 66 bd a9 d9 b2 bc a5 a8 b9 3d 11 53 94 3d
       -0.056300398 -0.021832304 0.090653695 0.07242406
0001d0 48 81 74 3c 69 e5 99 3c 99 33 5e bd d0 f3 d9 bc
       0.014923401 0.01878615 -0.054248426 -0.026605517
0001e0 50 99 b2 3d f1 7e 5e bd 6d c4 29 bd 9b 74 ba bd
       0.08720648 -0.05432028 -0.04144709 -0.09104272
0001f0 03 31 30 bd 77 6d 85 bc 3b c8 e4 3d e4 64 94 3c
       -0.04301549 -0.016287548 0.111710034 0.018114515
000200 aa 0c da 3d 74 e3 c6 3d 8e 23 fe 3c 46 c6 50 3d
       0.10646947 0.09711352 0.031022813 0.05097034
000210 35 a9 86 3d bb 8e 63 bd d7 4c bd 3c e1 d8 0c 3d
       0.065752424 -0.05555604 0.02310793 0.03438652
000220 fa c9 31 bd f2 c3 1d bd db 46 60 3b 32 ab 4f 3d
       -0.04340551 -0.038516946 0.003422192 0.050700374
000230 8b 39 31 bd 8c 45 f5 bb da d2 5f bc fa 12 92 bc
       -0.043267768 -0.0074850973 -0.013661111 -0.017831314
000240 7a d2 8b bd 23 01 a1 bc 49 9b 11 bd 1b 9d 0d 3c
       -0.068272546 -0.019653862 -0.035548482 0.008643414
000250 2e d3 f6 ba e2 30 0c 3d a2 97 b5 3c 39 f9 92 bd
       -0.0018831247 0.034226306 0.02216703 -0.07176442
000260 ee a8 20 bd d3 1c 29 bd 75 2f 80 ba a9 b6 9e 3d
       -0.039223604 -0.041287255 -0.0009779768 0.077496834
000270 45 e3 55 bd b4 b3 8e bd 17 f2 38 ba fd 85 9a 3d
       -0.052218694 -0.069678694 -0.0007055117 0.075450875
000280 11 68 23 bd 02 d3 a1 3d d5 01 a2 3d f5 29 54 bd
       -0.039894167 0.07901575 0.07910506 -0.051797826
000290 6a b2 8b bd ad 46 b3 3c 7b 67 81 3d ad 2e 28 bd
       -0.06821139 0.021884287 0.063185655 -0.04106014
0002a0 bb dd 98 bc 9c bf 84 3d 84 b1 87 3d 8e 44 75 bb
       -0.018660417 0.06481859 0.06625655 -0.0037424895
0002b0 06 b3 cc 3c 85 34 33 3c fb 83 9f 3d fa 01 4c bc
       0.024987709 0.010937815 0.07788845 -0.012451643
0002c0 42 55 62 bd b8 8e b1 3d cf a5 85 3d 68 0a 0a 3d
       -0.05525709 0.086697996 0.06525766 0.03370133
0002d0 b2 d9 5e bd 76 7a e7 3d 05 e6 fb bc bf e0 35 bd
       -0.05440683 0.113026544 -0.03074933 -0.044403788
0002e0 f5 58 78 bd 85 88 76 bd d7 6d 81 3d 76 76 d1 3d
       -0.06063171 -0.06018879 0.063197784 0.10227673
0002f0 fe 3c 87 bd 19 a1 89 3d ae d6 ee 3c d1 0e 94 bd
       -0.0660343 0.0672018 0.029155102 -0.072293885
000300 69 d9 19 3d 07 15 d4 bc 23 37 a8 bb 69 1b d3 bc
       0.037560854 -0.025888933 -0.005133526 -0.025769906
000310 75 27 ac 3c f5 d5 95 3d b6 4c a0 3d 4e 63 6a 3d
       0.021014908 0.073162 0.078271315 0.05722361
000320 d1 81 90 3d ee 71 48 bd e6 fa ff bc 7e 53 df 3c
       0.070560105 -0.048936777 -0.031247567 0.027261492
000330 e2 d0 59 bd 3f a6 ae bc e4 6d 05 3c ac fb 5a bd
       -0.05317772 -0.021319507 0.008143876 -0.05346267
000340 7d 0c 07 bd d5 8a 74 3c be a6 1f bd 8a b9 0b bd
       -0.032970894 0.014925678 -0.038977377 -0.03411249
000350 f4 97 a8 bd 77 08 96 bd 1a f5 70 3d e9 81 d3 bc
       -0.08232108 -0.07325833 0.058827497 -0.025818782
000360 54 c5 79 3d a0 7a 30 bd 7c 75 88 3c d2 6c 19 3d
       0.060979202 -0.043085694 0.016657583 0.037457295
000370 24 8a a6 3c b4 fa 0b bd 12 4c ee bc c8 74 3c bd
       0.020329542 -0.034174636 -0.029089008 -0.04600981
000380 38 e9 9a bc 12 30 bd 3d 69 0d 7d 3d 96 49 08 bd
       -0.018910035 0.09237684 0.061780367 -0.033273302
000390 fe ec 28 bd 16 96 4c bc 47 5d 63 3d f9 49 5b 3d
       -0.04124164 -0.012486955 0.055508878 0.053537343
0003a0 ab ef bb 3c 17 86 aa bd 7f fe 15 bd 07 e8 72 bc
       0.022941431 -0.08326357 -0.03661966 -0.014825827
0003b0 2d d6 f0 3c 1e ad c2 3d b3 e1 7c 3d 15 ff e3 bb
       0.029399002 0.09505676 0.06173868 -0.0069578984
0003c0 66 9d f8 3c 05 20 22 bd 1d 98 8b 3d 02 13 61 3d
       0.03034849 -0.039581317 0.06816123 0.054949768
0003d0 09 13 ce 3d e7 2b e5 3c 06 8b 04 3b e1 c6 31 3d
       0.100622244 0.027975036 0.0020224466 0.043402556
0003e0 76 a0 af 3c 74 33 a2 3d 0f 5d de 3d 73 81 0a bd
       0.021438818 0.0791997 0.10857593 -0.03381486
0003f0 d2 47 b5 3b f8 e6 2f bc da 61 5d 3d 68 10 e8 bc
       0.0055322433 -0.01073622 0.054048397 -0.028328136

lstm.bias_hh_l0 f4 [512]
000000 84 35 ab 3c f9 e0 77 bd e7 bc 6e bd 3f 60 b7 3d
       0.020899542 -0.060517285 -0.05828562 0.08953904
000010 e2 84 81 bd 27 69 34 3d 8d 79 7c 3d ae a5 1f bd
       -0.063241735 0.044045594 0.061639357 -0.038976364
000020 73 9f 21 bd 75 11 af 3d b9 19 66 bd ac f3 71 bd
       -0.039458703 0.085482515 -0.056176875 -0.059070274
000030 b0 65 b4 3d 6f 8c 34 bc 2d f0 e2 3c 4e 4d 7a bd
       0.08808458 -0.01101981 0.027702415 -0.06110888
000040 8e e8 08 bd 05 d9 a9 3d e0 65 82 3c ad 77 85 3d
       -0.033424906 0.08293346 0.015917718 0.06516967
000050 3f 13 86 3d f7 52 82 bc a7 57 5e 3d f4 f2 81 3d
       0.0654664 -0.015908701 0.05428281 0.06345168
000060 c7 72 83 bd b5 14 5b 3c dd 48 9a 3d 2b 81 d1 bd
       -0.064183764 0.013371636 0.07533429 -0.10229715
000070 a2 8b 3c 3d 53 10 53 bd d6 06 5e 3d 9d ea 0a 3d
       0.0460316 -0.05152924 0.054205738 0.03391515
000080 f6 a1 a6 3d 47 60 c4 3d 3e be c5 3d 62 65 d9 3d
       0.0813636 0.09588676 0.096554264 0.1061504
000090 87 09 21 3c 69 17 64 3d 61 f5 ef bc 44 8e fd 3c
       0.009828932 0.05568639 -0.02929181 0.030951627
0000a0 27 9f 52 ba 7b 15 90 bd 3e 74 93 3d fe 01 97 bd
       -0.000803458 -0.07035347 0.07199906 -0.07373427
0000b0 2d e0 a1 3d 0f f6 04 b9 c7 72 64 3d c3 7e 13 bd
       0.07904086 -0.00012680165 0.055773523 -0.03600956
0000c0 26 66 4b bd 7c 25 e4 3d 23 0d 78 3d 64 76 65 bd
       -0.049657963 0.11139962 0.060559403 -0.05602111
0000d0 a9 64 b9 bb f9 b7 3e bc 09 97 e4 3c 9e 74 98 3d
       -0.0056577516 -0.011640542 0.02790405 0.07444118
0000e0 d8 d2 84 3d 8b 4c 2c bd 8f 74 41 3d b1 24 6a bc
       0.06485528 -0.042065185 0.0472303 -0.0142909745
0000f0 55 27 9a 3c e0 b2 9f 3c c6 4a 81 3c 8a ea 7e bd
       0.018817583 0.019494474 0.015782725 -0.062235393
000100 50 18 09 3b 05 ac 12 3d 9a 67 4b 3d 15 d9 cd bc
       0.0020919032 0.03580858 0.04965935 -0.025127927
000110 d0 5a 4e 3d 25 99 87 bd 64 51 56 3c a9 7d 00 3d
       0.050379574 -0.06621007 0.0130809285 0.03136984
000120 e4 4a 83 bd 58 c9 12 bd d9 65 85 3b 13 b7 8c bc
       -0.06410769 -0.035836548 0.004070979 -0.01717714
000130 ed 3f 12 bc bb 01 6e bd f7 44 ed 3c f3 df 17 bd
       -0.008926374 -0.05810712 0.028963549 -0.03707881
000140 96 73 cb 3d b1 74 68 bd 81 71 e5 3d c7 fa a0 3d
       0.09934156 -0.05675191 0.1120329 0.07860332
000150 4c 34 94 3d 42 c9 b3 bd 43 fb d5 3c c3 bf 6a 3d
       0.07236537 -0.08778621 0.026120787 0.057311784
000160 c6 e4 34 bd cd 14 77 bd d0 0e 7d 3d 2d 52 bc 3d
       -0.044163488 -0.06032257 0.061781704 0.09195361
000170 6d 33 a3 3d fc 9b b8 3d e1 a6 28 bd a1 8a b8 3d
       0.07968793 0.09014127 -0.041174773 0.09010816
000180 c5 a9 dd 3d 19 dc dc 3d 83 df 32 3d 3f 22 93 3b
       0.108233966 0.10784168 0.04367019 0.0044901664
000190 f6 38 c7 3d 4a 94 12 3d c2 0d bf 3d a2 2d 48 bd
       0.09727661 0.03578595 0.09328796 -0.048871644
0001a0 bf 44 e8 3c 31 ca 45 3c 0e 0f 20 3d d6 33 0e bd
       0.028353093 0.012072132 0.039076857 -0.034717403
0001b0 f6 42 e3 bc 49 b0 76 bc 57 35 73 3d ab 3b 81 3d
       -0.02774189 -0.015056678 0.05937704 0.06310209
0001c0 37 6e 91 bd d1 e8 90 3d 5d d0 c8 3d 6c 1c 2b 3c
       -0.071011 0.07075656 0.09805367 0.010443788
0001d0 09 ba fa bc 05 cb 8a 3c 1e ad 81 3c 00 bf ac 3d
       -0.030606287 0.01694251 0.015829619 0.08434868
0001e0 b9 51 47 bd fd ce 34 bd 09 4c 91 3c fc db 24 3c
       -0.04866192 -0.044142712 0.017736452 0.010062214
0001f0 49 a3 9d 3d be d7 c9 3a 2f 8e 88 3d 0f a1 47 bd
       0.0769716 0.0015399379 0.06667744 -0.04873758
000200 5a 40 d7 3d 1f 9c 97 3c 87 e5 d1 bd cd 13 05 bd
       0.10510321 0.018507062 -0.10248857 -0.032489587
000210 99 98 1e 3c 2d be d7 3d d4 7d c9 3d 1f c3 ec 3c
       0.009679937 0.1053432 0.09838453 0.028901635
000220 14 c6 1f 3c 4f b0 a3 bd 13 1d c3 3d cf d4 45 bd
       0.009751815 -0.079926126 0.0952703 -0.048298653
000230 ac ee 41 bd 64 2b e0 3d d1 2f 3d bd a9 db 81 3d
       -0.047346756 0.10945776 -0.04618818 0.06340725
000240 d7 26 52 bd ad fa 3c bc 38 f0 ed 3b 09 ae 8c 3d
       -0.05130657 -0.011534375 0.0072613023 0.06869132
000250 fc 58 12 bd 5e 05 2f 3d 1c 57 bd 3d 6a 09 87 3d
       -0.035729393 0.042729728 0.092451304 0.065935925
000260 b8 2b 5b bd cb 81 1e 3d a4 07 af 3c 9f be 9a 3d
       -0.05350849 0.038698 0.021365948 0.07555889
000270 b4 15 51 bc 9c 0b a3 3d a6 7b a0 bc 8f 03 bf 3d
       -0.012761522 0.07961199 -0.01959021 0.093268506
000280 5d 29 17 bd 4d b8 b7 3c 59 bc 9c bc a4 24 aa 3d
       -0.03690468 0.022426749 -0.01913278 0.0830777
000290 e4 f5 1a bd 0b 8e bf bb 8d 88 8d 3d 55 e2 02 3d
       -0.037832156 -0.0058457903 0.069108106 0.03195413
0002a0 4f b0 af bd 56 3c 33 bd 01 62 4d 3b 1e f2 9f bd
       -0.0857855 -0.043758713 0.0031338932 -0.07809852
0002b0 e4 00 55 bd a4 d7 40 3d 2e b0 04 3d 47 92 a0 3d
       -0.052002802 0.04708065 0.03239458 0.078404
0002c0 44 e0 3e bd 26 66 bd 3d 80 f1 04 3d 9a ec f7 bc
       -0.046600595 0.09247999 0.032456875 -0.030264188
0002d0 81 62 22 bb 4a 1e 34 bd 53 af 8b bb b8 24 ac bc
       -0.0024777951 -0.0439742 -0.0042628436 -0.021013603
0002e0 3d bb 78 bd 8f 6b e4 bb a9 b6 96 3d 78 e7 f7 bc
       -0.06072544 -0.00697083 0.073590584 -0.03026174
0002f0 2d f8 74 bd d9 5f 05 3d 55 4f 8b bc 80 60 98 bd
       -0.05980699 0.03256211 -0.017005602 -0.07440281
000300 c1 58 50 bd 82 b5 77 bd 3b fa ad 3d ba 99 54 ba
       -0.050865892 -0.060475834 0.08494993 -0.0008110065
000310 bc 7c 9c 3c 4c d4 83 3d 73 ce c6 3d b1 8d 56 3d
       0.019102447 0.06436977 0.09707346 0.05238122
000320 b4 bc 8c 3d 22 68 4e bc 59 cd 22 bd 1e 16 b2 3d
       0.0687193 -0.012598069 -0.039746616 0.08695625
000330 8c 72 a5 bb 2e ac 07 3b fa 43 75 3c db e0 93 3d
       -0.0050490554 0.0020701992 0.01496982 0.07220622
000340 33 ec 5c bd 77 6f 26 bb d6 6e e4 3d 2a a6 83 bd
       -0.053936195 -0.0025396028 0.11153953 -0.06428178
000350 2a be 32 bd f8 e3 2b 3d c9 ad 94 3c cf 85 75 bd
       -0.043638386 0.041965455 0.018149273 -0.059942063
000360 64 ac 8d 3d bb 18 e0 3b ab 31 4a bc 29 2f 92 3c
       0.069176465 0.0068388856 -0.012340943 0.017844753
000370 12 e5 bd 3d 23 4e 28 bd 2b 9e c5 3d 60 a8 2d bd
       0.09272207 -0.041090142 0.09649309 -0.042396903
000380 4e 00 2f 3c a3 b8 cf 3c 04 bf d2 3c c3 39 fe bc
       0.010681225 0.025356596 0.025725849 -0.031033402
000390 e5 44 c1 3d 6a 69 f5 3b 58 5c 82 bb 19 43 a7 3d
       0.09436969 0.007489373 -0.0039782934 0.08167095
0003a0 16 42 e4 3b 4e 69 9b 3b 27 32 06 3d 98 a6 07 3d
       0.006965886 0.004742778 0.032762673 0.03311786
0003b0 b5 c8 c8 bb b1 0d 10 bd fc ca a3 bd e1 c6 3d bd
       -0.006127442 -0.035169307 -0.079977006 -0.046332244
0003c0 f9 74 8e 3d 54 73 3b 3d 30 dc ab 3b 5b a1 a2 3d
       0.069559045 0.045764282 0.0052447543 0.07940932
0003d0 07 e1 1b 3d 5c 28 3e 3c 43 63 be 3d 33 e1 94 3c
       0.0380564 0.011606302 0.092962764 0.01817379
0003e0 f5 42 86 bd a5 8d a5 3d 0d 85 cc 3a 17 c3 9a 3d
       -0.0655574 0.08083657 0.0015603617 0.07556742
0003f0 0d 1b be 3d ef fe 56 3d f5 43 c6 bc 51 de 6f 3d
       0.09282503 0.052489217 -0.024202326 0.058561627

lstm.weight_ih_l1 f4 [512, 128]
000000 83 e8 52 bd 1c 3e 39 bd 9f be a5 3c c7 1e 81 3c
       -0.05149127 -0.045225248 0.020232497 0.015761746
000010 03 24 82 bc e0 2b 92 bb bc 6f 41 3b 27 89 9b bc
       -0.015886312 -0.0044607967 0.0029516062 -0.018986298
000020 ac 2a 66 bd db 2a 4d 3c ec 09 a3 3a 8e 2a 83 3c
       -0.05619304 0.012522425 0.001243887 0.016011503
000030 e2 cd f1 3c 91 ab ae ba ae e3 2f 3d 76 e2 c8 bb
       0.029517118 -0.0013326277 0.04294174 -0.006130512
000040 b8 0a 34 3d 8f c0 dd bc cd 27 b3 bc c4 3b d3 bc
       0.043955535 -0.027069358 -0.021869564 -0.025785334
000050 b0 40 8c 3c 76 a5 a7 3d a3 78 88 3d 2d 2d 37 3c
       0.01712069 0.08185856 0.06663635 0.011180204
000060 76 29 74 bd e4 a7 7a bd 24 5f 97 3c c9 40 07 bd
       -0.059609853 -0.06119527 0.018477984 -0.03302077
000070 78 7e 88 3d b9 fc a6 bd 5f ef c2 3d d7 35 1b bc
       0.06664747 -0.08153672 0.09518313 -0.009473286
000080 35 3c bc 3d 9b a9 69 3d 31 11 ed 3c a1 5b 85 bd
       0.09191171 0.057046514 0.028938862 -0.065116175
000090 2c 9c 43 bc aa f9 87 bd 9e 6f af bd 3a 53 a3 bd
       -0.01193909 -0.066394165 -0.08566211 -0.079748586
0000a0 c1 74 8f bc 72 5b 56 bd 01 7c ab bd 6c dc 94 bd
       -0.017511727 -0.052333303 -0.08373261 -0.07268605
0000b0 b2 91 84 bc 72 f6 60 3d 25 bf 7d 3d fe e0 50 3d
       -0.016182754 0.05492253 0.061949868 0.05099582
0000c0 1b b6 1f bd c8 c4 dd 3c 33 94 15 bd f3 32 0d 3d
       -0.03899203 0.027071372 -0.036518287 0.034472417
0000d0 9f 76 a8 3d c2 3a b1 3d 0f 09 0b 3d 17 62 11 bd
       0.0822575 0.08653785 0.033944186 -0.035493936
0000e0 70 4a 68 bd 76 b6 45 3d 63 ba e3 bc 87 0f f9 3c
       -0.056711614 0.04826971 -0.027798837 0.030402912
0000f0 61 57 b4 3d f3 43 6c 3d c6 6d 80 bd a9 90 62 3d
       0.08805729 0.05768199 -0.062709376 0.05531374
000100 93 69 63 3d 95 00 48 bd e4 4d f3 b9 4e e2 81 bc
       0.055520605 -0.04882868 -0.00046406605 -0.01585498
000110 fc 17 96 bd 78 33 98 bc f8 1e c6 3d 64 b4 81 bd
       -0.073287934 -0.01857923 0.096738756 -0.06333235
000120 24 ae 47 bd 62 a6 53 3d 66 f9 66 bd ff 9e cc bc
       -0.048750058 0.051672347 -0.05639019 -0.024978159
000130 e8 fc 8c bc 22 a6 21 bd 75 e0 5a 3d 36 eb 86 bd
       -0.017210439 -0.039465077 0.053436715 -0.06587832
000140 9c fb 4f bd cc 3c 1b 3d f8 ef fe bc 72 db aa 3d
       -0.050777063 0.037899777 -0.031120285 0.08342637
000150 e6 cb c0 3b c8 2e c0 3d 24 a0 5f 3d 48 42 8c bc
       0.0058836816 0.09383923 0.05459608 -0.01712145
000160 4e be 48 3d 9a 46 52 bc da 76 c8 bd 90 7f d3 3b
       0.049009614 -0.012834216 -0.09788294 0.0064544156
000170 37 bd 32 3c c0 1d 54 3d 37 1d 8d bc 17 bd b4 bd
       0.01090937 0.051786184 -0.017225845 -0.088251285
000180 97 aa 54 bd f0 ae c5 3d cf ea 30 3c ba 51 b9 3d
       -0.0519205 0.09652507 0.01079817 0.09048791
000190 42 4c 8f bd 86 fd e6 bb fa 23 a4 bd 7c cb 97 bc
       -0.06996967 -0.0070492653 -0.080146745 -0.018529646
0001a0 eb 96 80 bd e5 55 83 3d 73 f5 b1 3d 3f a0 d1 bc
       -0.06278785 0.064128675 0.08689394 -0.025589107
0001b0 63 38 80 3d a3 0f 04 3d a1 0d 2e bd af 2f 38 3d
       0.06260755 0.032241475 -0.042493466 0.04496735
0001c0 2d 77 d2 bd 41 5f 88 bd d4 ea e3 bc 98 69 8d 3d
       -0.10276637 -0.06658793 -0.027821936 0.06904906
0001d0 b3 20 83 3d 0b c0 ee bb bc ff 8e 3d ac 2f 7e 3d
       0.06402721 -0.007286077 0.06982371 0.062057182
0001e0 79 04 87 3d d4 5d a9 bd b0 1f 9f 39 bd 38 a6 3c
       0.0659265 -0.082698494 0.00030350452 0.020290727
0001f0 dc 4b 12 bd ed 45 76 3d c9 8c 36 3d ae ee ac bc
       -0.035716876 0.06012528 0.044567857 -0.021109905
000200 a5 1b 14 3d 70 c9 9a 3d 21 b4 2d bc 79 06 c9 3d
       0.036159176 0.075579524 -0.010602028 0.09815688
000210 56 da 69 3d 73 a2 17 bd f6 ad 56 3d 01 86 89 bc
       0.057092987 -0.037020158 0.052411996 -0.01678753
000220 f2 a4 4e 3d 8a 9b 0b bd 42 7a 16 3d 25 54 a2 3d
       0.050450273 -0.03408388 0.036737688 0.079262055
000230 f0 8f c4 3d ff 4c f7 bc 45 37 46 3c 71 05 e3 3c
       0.095977664 -0.030188082 0.012098138 0.027712556
000240 8a 22 25 bd 33 32 7e 3d 77 8c ca 3c 25 45 87 bd
       -0.040316142 0.062059592 0.024725182 -0.06604985
000250 f8 9d 01 bc 71 05 da 3d a3 81 2f 3d a6 b4 2c bd
       -0.007911198 0.10645569 0.04284824 -0.042164467
000260 af 55 94 3c b9 75 ab 3c 46 25 34 3d 49 fa 7d 3d
       0.018107263 0.020930158 0.04398086 0.06200627
000270 b0 96 b8 bd 02 f6 8f bc 57 dd 9c bd 52 b4 8a 3d
       -0.09013116 -0.01757336 -0.07659405 0.067726746
000280 c4 95 3b 3d cd 5a 20 3d 24 50 cb 3d 75 c0 b9 bd
       0.045797125 0.039149094 0.09927395 -0.090699114
000290 c7 aa c1 3d 5b 97 69 bd 60 68 00 3d 5c 2a a5 bd
       0.09456401 -0.05702911 0.03134954 -0.0806472
0002a0 7c 39 e5 bb bb b2 4e bd 61 e8 0a bd 8a 74 4a 3d
       -0.006995378 -0.05046342 -0.03391302 0.049427547
0002b0 39 f7 cf bc 2f b8 8f 3d f0 a9 b2 3b 08 65 25 bd
       -0.02538644 0.07017552 0.005452387 -0.040379554
0002c0 e5 e5 95 bd 3f 96 22 bd 4b ca 24 bd 1b 13 25 bd
       -0.073192395 -0.039694067 -0.040231984 -0.040301424
0002d0 f8 0a 81 3c 71 f4 c7 bd 2e d5 9c 3c 29 f3 33 bb
       0.0157523 -0.097634204 0.01914462 -0.0027458167
0002e0 29 da 88 bc 49 b3 36 3d 6c 20 e0 3c 47 b9 50 3d
       -0.01670559 0.044604573 0.02735921 0.050957944
0002f0 66 fa 1c 3d 9f c4 a9 bd 37 64 44 bd ff 3c 26 bd
       0.038324736 -0.082894556 -0.047947135 -0.040585514
000300 38 88 91 3b 05 c6 ad 3d ff 1e 55 3d 54 9a a3 3c
       0.0044412874 0.08485035 0.052031513 0.01997105
000310 b8 69 21 3a 09 52 79 3c 30 8d 25 3d 46 a9 8b bd
       0.0006157416 0.015217313 0.04041785 -0.06819396
000320 c6 11 0e 3c 70 58 87 bd 17 49 e4 bc 23 56 ed bc
       0.00867123 -0.06608665 -0.027866883 -0.028971737
000330 ec ae 25 bd 0d 72 77 3d d7 f1 02 3d 03 b3 8b 3b
       -0.04045002 0.0604115 0.031968918 0.004263283
000340 53 0a 2f bc aa 57 bb bc 0b c3 6d bd 0d dd 25 3d
       -0.010683614 -0.02286895 -0.058047336 0.040494014
000350 dd 84 66 3d 1f 0a dc 3a 70 35 8b 3b ca 4c 3b bc
       0.056279052 0.0016787684 0.0042483136 -0.011431882
000360 cf b8 19 3d 70 e2 a9 bc b9 e3 66 3d 45 53 bf bd
       0.037529763 -0.020737857 0.056369517 -0.09342054
000370 2d 98 97 3d 44 c9 48 3d 11 d5 82 3d e5 e0 b7 bc
       0.07402072 0.049020067 0.063882954 -0.022446105
000380 28 6a 14 3b 19 ba 4c bc 29 5b 45 bd c3 4f ef bc
       0.0022646282 -0.012495541 -0.04818264 -0.029212838
000390 56 fa cc 3d d1 4f 21 bc aa dd 2d bd c1 1c e7 bc
       0.10008685 -0.00984569 -0.042447723 -0.028211953
0003a0 67 ec d8 3c 39 43 06 3c 92 8e 8b 3d c8 56 b3 3c
       0.026479913 0.008194738 0.068143025 0.021891966
0003b0 3a da 93 bd 07 3d c3 bd c6 48 67 bc bc 2b e0 3c
       -0.07219358 -0.095331244 -0.014116472 0.027364604
0003c0 e0 47 34 bd 1d ab b2 bd 37 75 fc bc 62 d9 61 3c
       -0.044013858 -0.087240435 -0.030817611 0.013784738
0003d0 9a 4f 99 bd d0 83 1f bd 8d fa 14 3d ac 78 a2 bc
       -0.07485886 -0.038944066 0.036371756 -0.019832931
0003e0 f7 28 90 3d 74 30 02 3d cc fd 80 3d a9 c6 2d bd
       0.070390634 0.03178449 0.06298408 -0.042425785
0003f0 d9 01 5a 3d 79 e9 87 3d d5 ca 7d bd 14 70 2c bd
       0.05322442 0.06636328 -0.061961014 -0.042099074

lstm.weight_hh_l1 f4 [512, 128]
000000 9b 74 c0 3d 97 8b ad bc 6d 0c 1d bd bd 0d 5f 3d
       0.09397241 -0.021184726 -0.03834193 0.05445646
000010 15 80 98 3d 71 04 95 bd 7e cf 92 3c 5a 73 5c 3d
       0.07446305 -0.07276238 0.017921206 0.053820945
000020 db 51 80 3d f7 9e c6 3d e6 f3 be bd e9 8e 4a 3d
       0.06265613 0.09698289 -0.09323864 0.049452696
000030 f0 02 09 bc af a0 f5 ba ea 5d e1 bc 29 b1 f7 bc
       -0.008362517 -0.0018739904 -0.027510602 -0.030235844
000040 1e b5 a6 3d ab 18 63 bd 9b 83 36 3d 18 9c 84 bc
       0.08140014 -0.055443447 0.044559103 -0.016187713
000050 42 85 e3 bb 73 88 01 bd 0b 51 7e 3c c7 ea 96 3c
       -0.006943376 -0.03162427 0.015522252 0.018422497
000060 29 7c 69 3d 0b 5c 83 bd 11 51 0e bd ad 60 ee 3b
       0.057003174 -0.0641404 -0.03474528 0.0072747082
000070 68 10 86 3d d5 19 d2 3c ce ec 21 bd c5 af 92 bd
       0.06546098 0.025647083 -0.039532475 -0.07162432
000080 65 6b 99 bc 99 be 88 3c 7a af 47 3d a1 a2 d4 bc
       -0.018727968 0.016692447 0.048751332 -0.025956454
000090 c8 a6 4b 3d 98 c5 02 3b 6c 3d 93 3d b3 a3 4d 3d
       0.049719602 0.00199542 0.0718945 0.050204944
0000a0 a2 7a 02 bd 70 e8 d7 3b a8 5e b4 3c a4 8b 02 bd
       -0.031855233 0.006588988 0.022017792 -0.031871453
0000b0 bf 2b 8e 3d f2 e5 63 3d 28 b0 4b 3d 5b 8d 64 3d
       0.06941938 0.055639215 0.049728543 0.05579887
0000c0 89 9e 2f bc 7c 7b 66 3d 91 52 6f bb 78 67 01 bd
       -0.01071895 0.056270108 -0.003651772 -0.031592816
0000d0 55 b0 ac 3d 3d 1b c0 3d 3e e2 d4 3c f5 99 9e 3d
       0.0843207 0.09380195 0.025986787 0.07744209
0000e0 8c e6 46 bd 3b 3b 2e 3d a7 2c 52 bd 8a 30 85 bd
       -0.04855971 0.042536955 -0.051312115 -0.06503399
0000f0 5f b3 cf 3c 01 af 46 bd cf b9 9f 3d 15 c9 44 bd
       0.025354085 -0.04850674 0.07799112 -0.04804333
000100 8f f8 b4 bd bf c2 93 3d 04 9a d0 3b 20 09 30 3d
       -0.08836471 0.07214879 0.0063660163 0.042977452
000110 47 a2 bb bd 29 bc 36 3d 96 47 83 3d 10 d0 68 3d
       -0.09161811 0.044613037 0.06410138 0.05683905
000120 22 7e 95 3c 33 ff a6 bd 2c ef 89 3d a3 ed 3e 3d
       0.018248621 -0.08154144 0.067350715 0.046613347
000130 3c c8 2e 3d 90 da 27 3d 5f 9c b9 bc 58 34 7e ba
       0.042671427 0.04097992 -0.022657571 -0.0009697131
000140 ac da 63 3d c4 5f c8 3d ba b4 67 bd a8 b8 ad 3d
       0.055628464 0.09783891 -0.05656884 0.08482486
000150 e5 f6 45 bd 75 e8 5c bc a7 fc 4a bd a0 d4 2f 3d
       -0.04833116 -0.013483156 -0.049557354 0.042927384
000160 6a 2a 33 3c c1 4b c4 bb 39 be fb 3c da 2c 99 bd
       0.010935405 -0.005990476 0.030730354 -0.07479258
000170 5b a3 4f bd 47 d0 4a 3d c5 79 29 3d 64 27 c4 3c
       -0.050692897 0.049515035 0.041375894 0.023944564
000180 55 69 d3 3d 60 c1 11 3d 10 23 18 3d 1c b8 85 3d
       0.10322825 0.035584807 0.037142813 0.06529257
000190 5a 72 f9 3c dc f8 3d bd 71 c0 b0 bd f0 3b c8 3c
       0.030450035 -0.04637991 -0.08630455 0.024442643
0001a0 9a 68 81 bc 72 02 87 3d b7 37 e4 bc 1b 14 d9 38
       -0.015796948 0.06592263 -0.027858598 0.00010351111
0001b0 92 fd 5e 3d 14 bb a9 bc 8f 87 0d bd d0 38 a8 bd
       0.054441042 -0.020719089 -0.034553107 -0.08213961
0001c0 86 f3 0a 3d b8 2e cb bd 29 cb cd bc 03 42 55 bd
       0.03392365 -0.0992102 -0.025121288 -0.052064907
0001d0 84 e5 16 bd 42 db 9b bc 0a 4c 72 3d 63 c1 2c 3d
       -0.036839977 -0.019025449 0.059154548 0.042176615
0001e0 8e b2 48 3d 1f 3c b0 bb bb 46 9b bd 2e c1 97 3d
       0.048998408 -0.0053782607 -0.0758185 0.07409893
0001f0 fb 4b 28 3d 99 d6 bc 3d 04 bd b6 bc fe 96 7a bd
       0.041088086 0.09220619 -0.022306927 -0.061179154
000200 d4 37 5b 3c 2e 69 c7 3d 24 39 88 bb 15 99 e3 bd
       0.01338001 0.09736858 -0.0041572023 -0.111131825
000210 99 23 80 3d 19 0b 6c 3a f0 58 d2 3c e9 62 9e bd
       0.0625679 0.0009004339 0.025677174 -0.07733709
000220 ef 4f b2 bd 04 a5 8c bd 21 83 c0 3d 6c 23 09 bc
       -0.087066524 -0.06867412 0.09400011 -0.008370262
000230 19 95 90 3d e7 5a 98 3d 88 84 23 3d 53 96 ce 3d
       0.07059688 0.07439213 0.039921314 0.10087266
000240 57 3e 80 3c d9 3d 2d bd 50 14 35 bc 74 f7 9a 3d
       0.015654726 -0.04229531 -0.011052206 0.07566729
000250 66 b1 e4 3c f7 1e db 3d bb 5c a6 3c fd c1 34 bc
       0.027916621 0.106992655 0.02030789 -0.011032579
000260 de 44 cb 3d cf 08 9c 3c a1 2b ba bd fd b1 87 3d
       0.09925245 0.019047169 -0.09090353 0.066257454
000270 1d 53 8a bc 63 c3 e4 3b 1a 0d c4 bd b9 22 98 3c
       -0.016885335 0.0069812997 -0.095728114 0.018571245
000280 4e 91 89 39 47 1d 4a 3d fd b2 7a 3d 22 94 5c 3d
       0.00026238937 0.049344327 0.061205853 0.053852208
000290 f2 c1 0c 3c f6 17 1f 3d c2 9d a2 bd b3 23 32 bd
       0.008591162 0.03884121 -0.07940246 -0.043491077
0002a0 61 90 bc 3d b6 94 16 bd 98 73 28 bd a3 67 2a 3d
       0.092072256 -0.036762916 -0.041125864 0.041602742
0002b0 d4 32 95 bc 5e f0 6c bc 2e ff e0 bb 11 f1 a0 3c
       -0.018212713 -0.014461605 -0.0068663573 0.0196462
0002c0 b1 bf 0e 3d 50 a7 db 3b a9 7b 48 bd a3 87 67 bc
       0.03485078 0.006703295 -0.048946057 -0.014131459
0002d0 70 38 ea 3c 9c 6d 05 3c fb f7 b2 3c 7d 49 3f 3d
       0.028591365 0.008143809 0.021846762 0.046700943
0002e0 54 a3 0b bb 60 fe a5 bd 5f 67 b8 bd a2 4c 06 3c
       -0.0021307068 -0.08105159 -0.090040915 0.008196982
0002f0 92 13 e5 3c c7 5b 6e 3b 30 4c 7e 3d 9d d1 14 bc
       0.027963433 0.0036370622 0.062084377 -0.009083179
000300 84 09 5a 3d 72 c7 0f bd 97 7d 96 bd cd 9a 71 3d
       0.05323173 -0.035102315 -0.07348173 0.05898552
000310 9f 25 14 bd bd db e6 bc ad 47 af 3d 3f 97 c8 3d
       -0.03616869 -0.028180951 0.08558593 0.09794473
000320 97 3d e5 bd 6f b6 88 3d 87 0b 9e bd d6 2e ba bd
       -0.11193388 0.066754214 -0.077170424 -0.090909645
000330 fa fc 09 bd 64 86 45 bd c6 9d 3e bd 6e 3f ce bc
       -0.033688523 -0.048223868 -0.046537183 -0.02517673
000340 35 d0 b6 bd 96 53 b8 bd 88 b3 db 3d 19 c4 9d 3d
       -0.08926431 -0.09000318 0.10727602 0.07703418
000350 8d 73 83 3d 5c 5e b8 bd cb fa 2c 3d d5 92 ab bd
       0.06418524 -0.090023726 0.042231362 -0.08377615
000360 c2 e1 06 3d f3 8a 0b bd 6f 83 64 3d fd 06 5f 3d
       0.032930143 -0.03406806 0.055789407 0.054450024
000370 c8 16 95 3c 00 82 9c 3d 0c 5b 43 bd 23 a5 da bc
       0.01819934 0.07641983 -0.04769425 -0.026690071
000380 88 41 9c bc 98 a0 ca 3d 52 93 2c bd 7e 7d f2 bc
       -0.019074216 0.09893912 -0.042132683 -0.029600855
000390 df 41 e0 bc b4 40 8b bd 9b 58 4e b9 1b 8c 7a 3b
       -0.02737516 -0.067994505 -0.00019678699 0.0038230482
0003a0 4e 8e 69 bd 9d 8f a7 bc a0 87 28 bd 7d 33 ba bc
       -0.057020478 -0.020454222 -0.041144967 -0.02272963
0003b0 b7 0d 86 bc 5e bc 64 3d f0 7c c8 3d 01 92 2f bd
       -0.016363962 0.055843703 0.09789455 -0.04286385
0003c0 5f bc 16 3d 1a 7e d9 3d e1 7c 78 bc 65 be e4 3c
       0.03680074 0.10619755 -0.015166492 0.027922818
0003d0 7b 27 b3 bd fa 13 80 bd 9c 9b af bd 2b 5f 98 3d
       -0.08747765 -0.0625381 -0.08574602 0.07440027
0003e0 cb 34 70 bd 95 d4 06 bd 90 c2 81 bd 9a be 11 3d
       -0.058644097 -0.032917578 -0.06335938 0.035582162
0003f0 0b 64 84 3d 4c cf 25 3d 9c 24 70 3d ff 20 7f 3c
       0.06464394 0.040480897 0.058628663 0.015571832

lstm.bias_ih_l1 f4 [512]
000000 c4 82 59 3d 12 d2 ce 3d 2d 8e 6d 3d 7c b4 b3 bc
       0.053103223 0.100986615 0.057996918 -0.021936648
000010 34 3f 7f 3c 5c f8 97 3d 99 16 4a bd 53 51 6e bb
       0.015579034 0.07420418 -0.049337957 -0.003636439
000020 06 5d 0e bd 88 0d c0 3d ce 0b 27 3d fe fe 0f 3d
       -0.034756683 0.09377581 0.040782742 0.03515529
000030 ed ec 8c 3d d8 3b 42 3d bd 7c 84 3d 76 60 ce bc
       0.068811275 0.047420353 0.064691044 -0.02519248
000040 00 0b 8b bc 3f 53 87 3c a4 41 7f 3d c5 03 9e 3d
       -0.016973019 0.016519187 0.06231846 0.07715563
000050 a3 f4 44 bd f4 56 3c bc cb d0 9d bb da ef 5f 3d
       -0.048084866 -0.011495341 -0.00481615 0.0546721
000060 19 2c d4 3d d6 d3 3d bd 02 fa 9c 3d 92 08 ea bc
       0.103599735 -0.0463446 0.07664873 -0.02856854
000070 26 0a 08 bd 9d b0 17 3d 79 af a4 3d ec 50 4b bd
       -0.033212803 0.037033666 0.08041281 -0.04963772
000080 99 a2 a1 bb b9 8e 1e 3d f1 3a 1d 3d c0 28 33 bc
       -0.004932713 0.03871033 0.03838629 -0.0109350085
000090 55 ed af 3c 4a ce d7 3d 02 1e 4a 3d 36 ed a9 3d
       0.021475473 0.105373934 0.049345024 0.082971975
0000a0 65 4c 0b bd d9 1d c4 bb 1a 8f 21 3d 82 58 be 3d
       -0.034008402 -0.0059850034 0.039443113 0.09294225
0000b0 a8 16 4a 3d 5a 39 fc bc 7e c7 42 3b dd 3a 3f bd
       0.049338013 -0.030789066 0.0029720957 -0.046686996
0000c0 9c e1 86 3d fd 04 af 3c cf 3e d7 bc 38 33 58 bc
       0.06586 0.021364683 -0.026275067 -0.013195805
0000d0 12 33 a8 3b 05 70 d6 3d 59 94 3b bd 89 cc 50 bd
       0.005133041 0.10470585 -0.045795772 -0.05097631
0000e0 8c 8f ba bc dc 0f 53 bd ad 65 5f 3d 36 29 8f 3d
       -0.022773527 -0.051528797 0.054540325 0.06990282
0000f0 04 7b 52 bd fb c9 7f 3c 8e 0c 87 bb 31 60 14 bd
       -0.051386848 0.015612121 -0.0041213697 -0.036224548
000100 59 c1 a8 3c e4 11 87 bc d2 12 b1 bd 09 f6 d7 3d
       0.020600008 -0.016488023 -0.08646168 0.10544974
000110 08 a9 80 bd de 07 0b 3d c5 b8 7d 3d 0c b0 5b bd
       -0.0628224 0.03394305 0.061943788 -0.05363469
000120 76 bc 92 3d f3 63 c3 3c 04 bb 49 3d 4b 92 76 bd
       0.07164852 0.02385137 0.049250618 -0.06019811
000130 5c 1f 9d 3d 4c 33 1d bd 38 b1 b0 3c 7f bb 07 bc
       0.07671997 -0.038379 0.02156888 -0.008284449
000140 c0 e5 94 bd fe a9 25 bc 3c 31 72 bc dd d0 23 bd
       -0.07270384 -0.01011133 -0.014782246 -0.03999411
000150 61 e8 4b bd a1 da 54 bd 35 1e b5 bc bf 0b 86 3d
       -0.04978216 -0.051966313 -0.02210913 0.06545209
000160 79 f8 b7 3d 43 2b 87 3d a8 e2 36 bb 1d ab 20 3d
       0.08982939 0.066000484 -0.0027906094 0.039225686
000170 03 2b 84 bc 95 d8 9b 3a 72 e3 8f bd 2a a6 7f 3b
       -0.01613379 0.0011890108 -0.070258036 0.0039008954
000180 fa 45 9e bc 7c be 40 3c bd 15 f2 bc 35 8a 20 bd
       -0.019320477 0.011764165 -0.029551381 -0.039194304
000190 93 c3 b0 3b 15 0e 0d 3d 41 19 49 bd f1 65 9c bc
       0.005394408 0.034437258 -0.04909635 -0.019091578
0001a0 0e 3a 1f bd 31 39 1c 3d 55 01 e8 bc af 6b 91 bd
       -0.038873725 0.03814048 -0.028320948 -0.07100617
0001b0 41 fe 57 3d d6 bf b1 3b ec e4 a3 bc 68 d8 44 bd
       0.05273271 0.00542448 -0.02000662 -0.048057944
0001c0 6d 1a 45 bc a1 a7 a7 3d 58 47 2b bd ca 54 94 bc
       -0.012030226 0.081862696 -0.041816086 -0.018106837
0001d0 6e f1 9a bc e3 a5 8a 3d d5 51 0a bd 76 21 2f bd
       -0.01891395 0.06769922 -0.033769447 -0.04275652
0001e0 f8 f3 8f 3d 69 4f 9e 3d 5e ff 8f 3d f8 86 ba 3d
       0.07028955 0.0772999 0.07031129 0.091077745
0001f0 5e cd e6 3c c4 7d 27 3c f8 a6 1e 3a 3f 7b 22 bc
       0.028174099 0.010222856 0.0006052102 -0.0099170795
000200 c7 16 b2 3c a5 32 be 3d f8 a5 23 3d 0f bb 76 3d
       0.021739377 0.092870034 0.039953202 0.060236987
000210 34 71 ad 39 4b 86 91 3d ff e1 8c 3d 78 5e d8 3d
       0.00033081474 0.071056925 0.06879043 0.105648935
000220 59 4c 2d bd 80 8b 73 3d 8a c0 a2 3d 4f 6e ba 3d
       -0.04230914 0.05945921 0.0794688 0.09103071
000230 bd 70 96 bc 32 e0 02 bb a1 07 6f bd cc 5d 23 3d
       -0.018364305 -0.0019970057 -0.058356885 0.039884374
000240 be f7 32 3d 6c d8 87 3d 61 f7 c4 bc 45 37 e8 bc
       0.043693297 0.06633076 -0.02404374 -0.028346667
000250 0a b9 6c bd 0d 74 94 3d d1 fe 9b bd 2d 71 9b 3d
       -0.057793655 0.072486974 -0.07616962 0.07589946
000260 5e dd 22 3d 9f f3 3b bd a4 97 7f 3b d9 c6 85 3c
       0.039761893 -0.045886632 0.0039000297 0.01633017
000270 d8 4e a7 3d 8e 5f b1 bc 87 c0 0a 3d a6 e9 75 bd
       0.08169335 -0.02165201 0.033875015 -0.060037278
000280 17 94 b9 bb 5c 0d 59 bd 27 13 c2 bc 48 83 01 3d
       -0.0056634056 -0.052991256 -0.023690773 0.03161934
000290 a7 bb c3 3d 67 30 96 bc f0 46 ea bb b6 18 ab 3d
       0.09557276 -0.018333627 -0.0071495697 0.083543226
0002a0 10 24 2b 3d 1a 4e fd 3b 07 da d1 3d 38 3b 28 3d
       0.04178244 0.0077302577 0.102466635 0.0410721
0002b0 ad b6 57 bd 00 fb c9 bc 31 b9 88 bc 83 13 86 3d
       -0.052664448 -0.024655819 -0.016689869 0.0654669
0002c0 25 51 24 bd 51 fb a6 3d 9c 2e 0b bd 09 a6 c8 3c
       -0.040116448 0.081534036 -0.033979997 0.024493234
0002d0 8f 4d f8 3c 74 83 6f bd 01 36 d5 3d a8 89 98 3d
       0.03031042 -0.058474973 0.10410691 0.07448131
0002e0 7e 4f 8a bd 70 00 95 3d 90 b2 6a 3c a2 17 95 3d
       -0.06753443 0.07275474 0.014324799 0.07279898
0002f0 c8 b3 c3 3d 6d 38 af 3c 32 93 ae 3c 00 9b cd 3c
       0.09555775 0.02138921 0.021310423 0.025098324
000300 11 2b be bc b0 4c 68 3c 52 04 4e bb b5 36 06 3d
       -0.023213895 0.01417844 -0.003143568 0.032767016
000310 32 59 af 3d f5 10 39 3d 73 03 9c 3d cf 95 e1 bc
       0.085619345 0.045182187 0.076178454 -0.027537255
000320 21 9b e9 3a ef 28 6d bd c1 bb 19 bd c3 1a b0 3d
       0.0017822721 -0.057900365 -0.03753257 0.085988544
000330 de 4e 33 bd 49 9d dc 3d b4 76 db bb e2 a4 cf 3c
       -0.043776385 0.10772187 -0.0066975 0.025347177
000340 55 85 b3 bc 3a 17 8c 3b 0a 22 07 3d 71 18 4c 3d
       -0.021914164 0.0042752298 0.032991447 0.049827997
000350 2c 88 3e bd d0 e8 4f bc de 02 60 bd 45 97 83 bc
       -0.046516582 -0.012689784 -0.054690234 -0.016063342
000360 36 c1 6c 3d 06 c5 dd bc d9 ac cd bc 28 3f b5 3d
       0.057801448 -0.027071487 -0.025106834 0.08849937
000370 66 a2 67 3c 76 81 d9 bb 53 39 81 bc 94 84 ae 3d
       0.01413784 -0.0066377474 -0.015774405 0.08521381
000380 ee c3 36 bc 14 bd 4c 3d 0c 30 d2 3d d2 e9 9d 3d
       -0.011155112 0.049985006 0.102630705 0.07710613
000390 5a 6a f5 bc 67 81 8b 3d 09 a0 0a 3d bf b0 b2 3d
       -0.029957939 0.06811791 0.033844028 0.08725118
0003a0 fe f9 1d 3d 54 f6 c3 bb 68 d0 0a 3d 1b f7 25 bb
       0.03856849 -0.0059802923 0.033890158 -0.0025324288
0003b0 17 51 59 3d 2b 15 e8 bc c9 53 a4 bd ba df 1d 3d
       0.05305585 -0.028330406 -0.08023793 0.03854344
0003c0 19 d4 8d 3d 80 54 cc 3c cc f0 eb 3c e8 1a 4e 3d
       0.0692522 0.024942636 0.028801344 0.05031863
0003d0 68 26 30 bc a9 46 d0 3d 9f 1c 2b bd 37 94 6f bc
       -0.010751344 0.10169727 -0.041775342 -0.0146227395
0003e0 14 bc 66 3c 5d bd ca 3d ea ca f0 bc 30 8e 9c 3d
       0.014082927 0.098993994 -0.029393632 0.076443076
0003f0 ae 1b 37 bd 00 ff 99 3d c7 d5 72 3d 04 08 7e 3d
       -0.04470413 0.075193405 0.059285905 0.062019363
